…
I1101 20:47:18.895730 31130 net.cpp:294] The NetState phase (0) differed from the phase (1) specified by a rule in layer PData
I1101 20:47:18.895769 31130 net.cpp:294] The NetState phase (0) differed from the phase (1) specified by a rule in layer accuracy
I1101 20:47:18.895926 31130 net.cpp:51] Initializing net from parameters: 
state {
  phase: TRAIN
  level: 0
  stage: ""
}
layer {
  name: "PData"
  type: "HDF5Data"
  top: "data"
  top: "label"
  include {
    phase: TRAIN
  }
  hdf5_data_param {
    source: "data/train_pnet.txt"
    batch_size: 256
  }
}
layer {
  name: "slicer"
  type: "Slice"
  bottom: "label"
  top: "clalabel"
  top: "roi"
  slice_param {
    slice_point: 1
    axis: 1
  }
}
layer {
  name: "conv1"
  type: "Convolution"
  bottom: "data"
  top: "conv1"
  param {
    lr_mult: 1
    decay_mult: 1
  }
  param {
    lr_mult: 2
    decay_mult: 0
  }
  convolution_param {
    num_output: 10
    kernel_size: 3
    stride: 1
    weight_filler {
      type: "gaussian"
      std: 0.01
    }
    bias_filler {
      type: "constant"
      value: 0
    }
  }
}
layer {
  name: "prelu1"
  type: "PReLU"
  bottom: "conv1"
  top: "conv1"
}
layer {
  name: "pool1"
  type: "Pooling"
  bottom: "conv1"
  top: "pool1"
  pooling_param {
    pool: MAX
    kernel_size: 2
    stride: 2
  }
}
layer {
  name: "conv2"
  type: "Convolution"
  bottom: "pool1"
  top: "conv2"
  param {
    lr_mult: 1
    decay_mult: 1
  }
  param {
    lr_mult: 2
    decay_mult: 0
  }
  convolution_param {
    num_output: 16
    kernel_size: 3
    stride: 1
    weight_filler {
      type: "gaussian"
      std: 0.01
    }
    bias_filler {
      type: "constant"
      value: 0
    }
  }
}
layer {
  name: "prelu2"
  type: "PReLU"
  bottom: "conv2"
  top: "conv2"
}
layer {
  name: "conv3"
  type: "Convolution"
  bottom: "conv2"
  top: "conv3"
  param {
    lr_mult: 1
    decay_mult: 1
  }
  param {
    lr_mult: 2
    decay_mult: 0
  }
  convolution_param {
    num_output: 32
    kernel_size: 3
    stride: 1
    weight_filler {
      type: "gaussian"
      std: 0.01
    }
    bias_filler {
      type: "constant"
      value: 0
    }
  }
}
layer {
  name: "prelu3"
  type: "PReLU"
  bottom: "conv3"
  top: "conv3"
}
layer {
  name: "conv4_1"
  type: "Convolution"
  bottom: "conv3"
  top: "conv4_1"
  param {
    lr_mult: 1
    decay_mult: 1
  }
  param {
    lr_mult: 2
    decay_mult: 0
  }
  convolution_param {
    num_output: 2
    kernel_size: 1
    stride: 1
    weight_filler {
      type: "gaussian"
      std: 0.01
    }
    bias_filler {
      type: "constant"
      value: 0
    }
  }
}
layer {
  name: "conv4_2"
  type: "Convolution"
  bottom: "conv3"
  top: "conv4_2"
  param {
    lr_mult: 1
    decay_mult: 1
  }
  param {
    lr_mult: 2
    decay_mult: 0
  }
  convolution_param {
    num_output: 4
    kernel_size: 1
    stride: 1
    weight_filler {
      type: "gaussian"
      std: 0.01
    }
    bias_filler {
      type: "constant"
      value: 0
    }
  }
}
layer {
  name: "label_loss"
  type: "SoftmaxWithLoss"
  bottom: "conv4_1"
  bottom: "clalabel"
  top: "label_loss"
  loss_weight: 1
}
layer {
  name: "roi_loss"
  type: "EuclideanLoss"
  bottom: "conv4_2"
  bottom: "roi"
  top: "roi_loss"
  loss_weight: 0.5
  loss_param {
    ignore_label: 0
  }
}
I1101 20:47:18.896700 31130 layer_factory.hpp:77] Creating layer PData
I1101 20:47:18.896739 31130 net.cpp:84] Creating Layer PData
I1101 20:47:18.896757 31130 net.cpp:380] PData -> data
I1101 20:47:18.896802 31130 net.cpp:380] PData -> label
I1101 20:47:18.896837 31130 hdf5_data_layer.cpp:80] Loading list of HDF5 filenames from: data/train_pnet.txt
I1101 20:47:18.896911 31130 hdf5_data_layer.cpp:94] Number of HDF5 files: 1
I1101 20:47:18.900715 31130 hdf5.cpp:32] Datatype class: H5T_FLOAT
I1101 20:47:27.965705 31130 net.cpp:122] Setting up PData
I1101 20:47:27.965822 31130 net.cpp:129] Top shape: 256 1 12 12 (36864)
I1101 20:47:27.965850 31130 net.cpp:129] Top shape: 256 5 (1280)
I1101 20:47:27.965868 31130 net.cpp:137] Memory required for data: 152576
I1101 20:47:27.965898 31130 layer_factory.hpp:77] Creating layer slicer
I1101 20:47:27.965979 31130 net.cpp:84] Creating Layer slicer
I1101 20:47:27.966007 31130 net.cpp:406] slicer <- label
I1101 20:47:27.966038 31130 net.cpp:380] slicer -> clalabel
I1101 20:47:27.966074 31130 net.cpp:380] slicer -> roi
I1101 20:47:27.966140 31130 net.cpp:122] Setting up slicer
I1101 20:47:27.966166 31130 net.cpp:129] Top shape: 256 1 (256)
I1101 20:47:27.966184 31130 net.cpp:129] Top shape: 256 4 (1024)
I1101 20:47:27.966198 31130 net.cpp:137] Memory required for data: 157696
I1101 20:47:27.966212 31130 layer_factory.hpp:77] Creating layer conv1
I1101 20:47:27.966264 31130 net.cpp:84] Creating Layer conv1
I1101 20:47:27.966295 31130 net.cpp:406] conv1 <- data
I1101 20:47:27.966320 31130 net.cpp:380] conv1 -> conv1
I1101 20:47:28.504421 31130 net.cpp:122] Setting up conv1
I1101 20:47:28.504508 31130 net.cpp:129] Top shape: 256 10 10 10 (256000)
I1101 20:47:28.504523 31130 net.cpp:137] Memory required for data: 1181696
I1101 20:47:28.504554 31130 layer_factory.hpp:77] Creating layer prelu1
I1101 20:47:28.504585 31130 net.cpp:84] Creating Layer prelu1
I1101 20:47:28.504604 31130 net.cpp:406] prelu1 <- conv1
I1101 20:47:28.504621 31130 net.cpp:367] prelu1 -> conv1 (in-place)
I1101 20:47:28.505381 31130 net.cpp:122] Setting up prelu1
I1101 20:47:28.505405 31130 net.cpp:129] Top shape: 256 10 10 10 (256000)
I1101 20:47:28.505416 31130 net.cpp:137] Memory required for data: 2205696
I1101 20:47:28.505439 31130 layer_factory.hpp:77] Creating layer pool1
I1101 20:47:28.505462 31130 net.cpp:84] Creating Layer pool1
I1101 20:47:28.505475 31130 net.cpp:406] pool1 <- conv1
I1101 20:47:28.505491 31130 net.cpp:380] pool1 -> pool1
I1101 20:47:28.505565 31130 net.cpp:122] Setting up pool1
I1101 20:47:28.505586 31130 net.cpp:129] Top shape: 256 10 5 5 (64000)
I1101 20:47:28.505599 31130 net.cpp:137] Memory required for data: 2461696
I1101 20:47:28.505609 31130 layer_factory.hpp:77] Creating layer conv2
I1101 20:47:28.505632 31130 net.cpp:84] Creating Layer conv2
I1101 20:47:28.505645 31130 net.cpp:406] conv2 <- pool1
I1101 20:47:28.505658 31130 net.cpp:380] conv2 -> conv2
I1101 20:47:28.507553 31130 net.cpp:122] Setting up conv2
I1101 20:47:28.507580 31130 net.cpp:129] Top shape: 256 16 3 3 (36864)
I1101 20:47:28.507592 31130 net.cpp:137] Memory required for data: 2609152
I1101 20:47:28.507608 31130 layer_factory.hpp:77] Creating layer prelu2
I1101 20:47:28.507629 31130 net.cpp:84] Creating Layer prelu2
I1101 20:47:28.507642 31130 net.cpp:406] prelu2 <- conv2
I1101 20:47:28.507655 31130 net.cpp:367] prelu2 -> conv2 (in-place)
I1101 20:47:28.507762 31130 net.cpp:122] Setting up prelu2
I1101 20:47:28.507783 31130 net.cpp:129] Top shape: 256 16 3 3 (36864)
I1101 20:47:28.507794 31130 net.cpp:137] Memory required for data: 2756608
I1101 20:47:28.507807 31130 layer_factory.hpp:77] Creating layer conv3
I1101 20:47:28.507830 31130 net.cpp:84] Creating Layer conv3
I1101 20:47:28.507846 31130 net.cpp:406] conv3 <- conv2
I1101 20:47:28.507863 31130 net.cpp:380] conv3 -> conv3
I1101 20:47:28.509714 31130 net.cpp:122] Setting up conv3
I1101 20:47:28.509742 31130 net.cpp:129] Top shape: 256 32 1 1 (8192)
I1101 20:47:28.509752 31130 net.cpp:137] Memory required for data: 2789376
I1101 20:47:28.509766 31130 layer_factory.hpp:77] Creating layer prelu3
I1101 20:47:28.509783 31130 net.cpp:84] Creating Layer prelu3
I1101 20:47:28.509796 31130 net.cpp:406] prelu3 <- conv3
I1101 20:47:28.509809 31130 net.cpp:367] prelu3 -> conv3 (in-place)
I1101 20:47:28.509917 31130 net.cpp:122] Setting up prelu3
I1101 20:47:28.509977 31130 net.cpp:129] Top shape: 256 32 1 1 (8192)
I1101 20:47:28.509989 31130 net.cpp:137] Memory required for data: 2822144
I1101 20:47:28.510004 31130 layer_factory.hpp:77] Creating layer conv3_prelu3_0_split
I1101 20:47:28.510027 31130 net.cpp:84] Creating Layer conv3_prelu3_0_split
I1101 20:47:28.510042 31130 net.cpp:406] conv3_prelu3_0_split <- conv3
I1101 20:47:28.510057 31130 net.cpp:380] conv3_prelu3_0_split -> conv3_prelu3_0_split_0
I1101 20:47:28.510073 31130 net.cpp:380] conv3_prelu3_0_split -> conv3_prelu3_0_split_1
I1101 20:47:28.510128 31130 net.cpp:122] Setting up conv3_prelu3_0_split
I1101 20:47:28.510148 31130 net.cpp:129] Top shape: 256 32 1 1 (8192)
I1101 20:47:28.510164 31130 net.cpp:129] Top shape: 256 32 1 1 (8192)
I1101 20:47:28.510176 31130 net.cpp:137] Memory required for data: 2887680
I1101 20:47:28.510187 31130 layer_factory.hpp:77] Creating layer conv4_1
I1101 20:47:28.510212 31130 net.cpp:84] Creating Layer conv4_1
I1101 20:47:28.510241 31130 net.cpp:406] conv4_1 <- conv3_prelu3_0_split_0
I1101 20:47:28.510257 31130 net.cpp:380] conv4_1 -> conv4_1
I1101 20:47:28.511592 31130 net.cpp:122] Setting up conv4_1
I1101 20:47:28.511618 31130 net.cpp:129] Top shape: 256 2 1 1 (512)
I1101 20:47:28.511629 31130 net.cpp:137] Memory required for data: 2889728
I1101 20:47:28.511644 31130 layer_factory.hpp:77] Creating layer conv4_2
I1101 20:47:28.511664 31130 net.cpp:84] Creating Layer conv4_2
I1101 20:47:28.511678 31130 net.cpp:406] conv4_2 <- conv3_prelu3_0_split_1
I1101 20:47:28.511693 31130 net.cpp:380] conv4_2 -> conv4_2
I1101 20:47:28.513051 31130 net.cpp:122] Setting up conv4_2
I1101 20:47:28.513082 31130 net.cpp:129] Top shape: 256 4 1 1 (1024)
I1101 20:47:28.513093 31130 net.cpp:137] Memory required for data: 2893824
I1101 20:47:28.513108 31130 layer_factory.hpp:77] Creating layer label_loss
I1101 20:47:28.513139 31130 net.cpp:84] Creating Layer label_loss
I1101 20:47:28.513154 31130 net.cpp:406] label_loss <- conv4_1
I1101 20:47:28.513166 31130 net.cpp:406] label_loss <- clalabel
I1101 20:47:28.513178 31130 net.cpp:380] label_loss -> label_loss
…
I1101 20:47:28.514019 31130 net.cpp:255] Network initialization done.
I1101 20:47:28.514606 31130 solver.cpp:172] Creating test net (#0) specified by net file: prototxt/pnet.prototxt
I1101 20:47:28.514664 31130 net.cpp:294] The NetState phase (1) differed from the phase (0) specified by a rule in layer PData
I1101 20:47:28.514830 31130 net.cpp:51] Initializing net from parameters: 
state {
  phase: TEST
}
layer {
  name: "PData"
  type: "HDF5Data"
  top: "data"
  top: "label"
  include {
    phase: TEST
  }
  hdf5_data_param {
    source: "data/test_pnet.txt"
    batch_size: 2048
  }
}
layer {
  name: "slicer"
  type: "Slice"
  bottom: "label"
  top: "clalabel"
  top: "roi"
  slice_param {
    slice_point: 1
    axis: 1
  }
}
layer {
  name: "conv1"
  type: "Convolution"
  bottom: "data"
  top: "conv1"
  param {
    lr_mult: 1
    decay_mult: 1
  }
  param {
    lr_mult: 2
    decay_mult: 0
  }
  convolution_param {
    num_output: 10
    kernel_size: 3
    stride: 1
    weight_filler {
      type: "gaussian"
      std: 0.01
    }
    bias_filler {
      type: "constant"
      value: 0
    }
  }
}
layer {
  name: "prelu1"
  type: "PReLU"
  bottom: "conv1"
  top: "conv1"
}
layer {
  name: "pool1"
  type: "Pooling"
  bottom: "conv1"
  top: "pool1"
  pooling_param {
    pool: MAX
    kernel_size: 2
    stride: 2
  }
}
layer {
  name: "conv2"
  type: "Convolution"
  bottom: "pool1"
  top: "conv2"
  param {
    lr_mult: 1
    decay_mult: 1
  }
  param {
    lr_mult: 2
    decay_mult: 0
  }
  convolution_param {
    num_output: 16
    kernel_size: 3
    stride: 1
    weight_filler {
      type: "gaussian"
      std: 0.01
    }
    bias_filler {
      type: "constant"
      value: 0
    }
  }
}
layer {
  name: "prelu2"
  type: "PReLU"
  bottom: "conv2"
  top: "conv2"
}
layer {
  name: "conv3"
  type: "Convolution"
  bottom: "conv2"
  top: "conv3"
  param {
    lr_mult: 1
    decay_mult: 1
  }
  param {
    lr_mult: 2
    decay_mult: 0
  }
  convolution_param {
    num_output: 32
    kernel_size: 3
    stride: 1
    weight_filler {
      type: "gaussian"
      std: 0.01
    }
    bias_filler {
      type: "constant"
      value: 0
    }
  }
}
layer {
  name: "prelu3"
  type: "PReLU"
  bottom: "conv3"
  top: "conv3"
}
layer {
  name: "conv4_1"
  type: "Convolution"
  bottom: "conv3"
  top: "conv4_1"
  param {
    lr_mult: 1
    decay_mult: 1
  }
  param {
    lr_mult: 2
    decay_mult: 0
  }
  convolution_param {
    num_output: 2
    kernel_size: 1
    stride: 1
    weight_filler {
      type: "gaussian"
      std: 0.01
    }
    bias_filler {
      type: "constant"
      value: 0
    }
  }
}
layer {
  name: "conv4_2"
  type: "Convolution"
  bottom: "conv3"
  top: "conv4_2"
  param {
    lr_mult: 1
    decay_mult: 1
  }
  param {
    lr_mult: 2
    decay_mult: 0
  }
  convolution_param {
    num_output: 4
    kernel_size: 1
    stride: 1
    weight_filler {
      type: "gaussian"
      std: 0.01
    }
    bias_filler {
      type: "constant"
      value: 0
    }
  }
}
layer {
  name: "label_loss"
  type: "SoftmaxWithLoss"
  bottom: "conv4_1"
  bottom: "clalabel"
  top: "label_loss"
  loss_weight: 1
}
layer {
  name: "roi_loss"
  type: "EuclideanLoss"
  bottom: "conv4_2"
  bottom: "roi"
  top: "roi_loss"
  loss_weight: 0.5
  loss_param {
    ignore_label: 0
  }
}
layer {
  name: "accuracy"
  type: "Accuracy"
  bottom: "conv4_1"
  bottom: "clalabel"
  top: "accuracy"
  include {
    phase: TEST
  }
}
I1101 20:47:28.515529 31130 layer_factory.hpp:77] Creating layer PData
I1101 20:47:28.515552 31130 net.cpp:84] Creating Layer PData
I1101 20:47:28.515564 31130 net.cpp:380] PData -> data
I1101 20:47:28.515579 31130 net.cpp:380] PData -> label
I1101 20:47:28.515594 31130 hdf5_data_layer.cpp:80] Loading list of HDF5 filenames from: data/test_pnet.txt
I1101 20:47:28.515627 31130 hdf5_data_layer.cpp:94] Number of HDF5 files: 1
I1101 20:47:29.124331 31130 net.cpp:122] Setting up PData
I1101 20:47:29.124423 31130 net.cpp:129] Top shape: 2048 1 12 12 (294912)
I1101 20:47:29.124444 31130 net.cpp:129] Top shape: 2048 5 (10240)
I1101 20:47:29.124459 31130 net.cpp:137] Memory required for data: 1220608
I1101 20:47:29.124478 31130 layer_factory.hpp:77] Creating layer slicer
I1101 20:47:29.124518 31130 net.cpp:84] Creating Layer slicer
I1101 20:47:29.124539 31130 net.cpp:406] slicer <- label
I1101 20:47:29.124564 31130 net.cpp:380] slicer -> clalabel
I1101 20:47:29.124624 31130 net.cpp:380] slicer -> roi
I1101 20:47:29.124692 31130 net.cpp:122] Setting up slicer
I1101 20:47:29.124718 31130 net.cpp:129] Top shape: 2048 1 (2048)
I1101 20:47:29.124734 31130 net.cpp:129] Top shape: 2048 4 (8192)
I1101 20:47:29.124747 31130 net.cpp:137] Memory required for data: 1261568
I1101 20:47:29.124761 31130 layer_factory.hpp:77] Creating layer clalabel_slicer_0_split
I1101 20:47:29.124783 31130 net.cpp:84] Creating Layer clalabel_slicer_0_split
I1101 20:47:29.124799 31130 net.cpp:406] clalabel_slicer_0_split <- clalabel
I1101 20:47:29.124816 31130 net.cpp:380] clalabel_slicer_0_split -> clalabel_slicer_0_split_0
I1101 20:47:29.124835 31130 net.cpp:380] clalabel_slicer_0_split -> clalabel_slicer_0_split_1
I1101 20:47:29.124899 31130 net.cpp:122] Setting up clalabel_slicer_0_split
I1101 20:47:29.124925 31130 net.cpp:129] Top shape: 2048 1 (2048)
I1101 20:47:29.124943 31130 net.cpp:129] Top shape: 2048 1 (2048)
I1101 20:47:29.124956 31130 net.cpp:137] Memory required for data: 1277952
I1101 20:47:29.124970 31130 layer_factory.hpp:77] Creating layer conv1
I1101 20:47:29.125002 31130 net.cpp:84] Creating Layer conv1
I1101 20:47:29.125046 31130 net.cpp:406] conv1 <- data
I1101 20:47:29.125084 31130 net.cpp:380] conv1 -> conv1
I1101 20:47:29.127046 31130 net.cpp:122] Setting up conv1
I1101 20:47:29.127080 31130 net.cpp:129] Top shape: 2048 10 10 10 (2048000)
I1101 20:47:29.127095 31130 net.cpp:137] Memory required for data: 9469952
I1101 20:47:29.127120 31130 layer_factory.hpp:77] Creating layer prelu1
I1101 20:47:29.127144 31130 net.cpp:84] Creating Layer prelu1
I1101 20:47:29.127161 31130 net.cpp:406] prelu1 <- conv1
I1101 20:47:29.127177 31130 net.cpp:367] prelu1 -> conv1 (in-place)
I1101 20:47:29.127327 31130 net.cpp:122] Setting up prelu1
I1101 20:47:29.127354 31130 net.cpp:129] Top shape: 2048 10 10 10 (2048000)
I1101 20:47:29.127368 31130 net.cpp:137] Memory required for data: 17661952
I1101 20:47:29.127388 31130 layer_factory.hpp:77] Creating layer pool1
I1101 20:47:29.127406 31130 net.cpp:84] Creating Layer pool1
I1101 20:47:29.127421 31130 net.cpp:406] pool1 <- conv1
I1101 20:47:29.127439 31130 net.cpp:380] pool1 -> pool1
I1101 20:47:29.127506 31130 net.cpp:122] Setting up pool1
I1101 20:47:29.127532 31130 net.cpp:129] Top shape: 2048 10 5 5 (512000)
I1101 20:47:29.127547 31130 net.cpp:137] Memory required for data: 19709952
I1101 20:47:29.127562 31130 layer_factory.hpp:77] Creating layer conv2
I1101 20:47:29.127581 31130 net.cpp:84] Creating Layer conv2
I1101 20:47:29.127595 31130 net.cpp:406] conv2 <- pool1
I1101 20:47:29.127615 31130 net.cpp:380] conv2 -> conv2
I1101 20:47:29.129284 31130 net.cpp:122] Setting up conv2
I1101 20:47:29.129319 31130 net.cpp:129] Top shape: 2048 16 3 3 (294912)
I1101 20:47:29.129335 31130 net.cpp:137] Memory required for data: 20889600
I1101 20:47:29.129357 31130 layer_factory.hpp:77] Creating layer prelu2
I1101 20:47:29.129379 31130 net.cpp:84] Creating Layer prelu2
I1101 20:47:29.129395 31130 net.cpp:406] prelu2 <- conv2
I1101 20:47:29.129411 31130 net.cpp:367] prelu2 -> conv2 (in-place)
I1101 20:47:29.129561 31130 net.cpp:122] Setting up prelu2
I1101 20:47:29.129587 31130 net.cpp:129] Top shape: 2048 16 3 3 (294912)
I1101 20:47:29.129601 31130 net.cpp:137] Memory required for data: 22069248
I1101 20:47:29.129617 31130 layer_factory.hpp:77] Creating layer conv3
I1101 20:47:29.129642 31130 net.cpp:84] Creating Layer conv3
I1101 20:47:29.129659 31130 net.cpp:406] conv3 <- conv2
I1101 20:47:29.129678 31130 net.cpp:380] conv3 -> conv3
I1101 20:47:29.131386 31130 net.cpp:122] Setting up conv3
I1101 20:47:29.131419 31130 net.cpp:129] Top shape: 2048 32 1 1 (65536)
I1101 20:47:29.131434 31130 net.cpp:137] Memory required for data: 22331392
I1101 20:47:29.131453 31130 layer_factory.hpp:77] Creating layer prelu3
I1101 20:47:29.131470 31130 net.cpp:84] Creating Layer prelu3
I1101 20:47:29.131486 31130 net.cpp:406] prelu3 <- conv3
I1101 20:47:29.131503 31130 net.cpp:367] prelu3 -> conv3 (in-place)
I1101 20:47:29.131644 31130 net.cpp:122] Setting up prelu3
I1101 20:47:29.131669 31130 net.cpp:129] Top shape: 2048 32 1 1 (65536)
I1101 20:47:29.131685 31130 net.cpp:137] Memory required for data: 22593536
I1101 20:47:29.131706 31130 layer_factory.hpp:77] Creating layer conv3_prelu3_0_split
I1101 20:47:29.131724 31130 net.cpp:84] Creating Layer conv3_prelu3_0_split
I1101 20:47:29.131739 31130 net.cpp:406] conv3_prelu3_0_split <- conv3
I1101 20:47:29.131757 31130 net.cpp:380] conv3_prelu3_0_split -> conv3_prelu3_0_split_0
I1101 20:47:29.131774 31130 net.cpp:380] conv3_prelu3_0_split -> conv3_prelu3_0_split_1
I1101 20:47:29.131844 31130 net.cpp:122] Setting up conv3_prelu3_0_split
I1101 20:47:29.131870 31130 net.cpp:129] Top shape: 2048 32 1 1 (65536)
I1101 20:47:29.131886 31130 net.cpp:129] Top shape: 2048 32 1 1 (65536)
I1101 20:47:29.131899 31130 net.cpp:137] Memory required for data: 23117824
I1101 20:47:29.131916 31130 layer_factory.hpp:77] Creating layer conv4_1
I1101 20:47:29.131938 31130 net.cpp:84] Creating Layer conv4_1
I1101 20:47:29.131954 31130 net.cpp:406] conv4_1 <- conv3_prelu3_0_split_0
I1101 20:47:29.131973 31130 net.cpp:380] conv4_1 -> conv4_1
I1101 20:47:29.133502 31130 net.cpp:122] Setting up conv4_1
I1101 20:47:29.133535 31130 net.cpp:129] Top shape: 2048 2 1 1 (4096)
I1101 20:47:29.133551 31130 net.cpp:137] Memory required for data: 23134208
I1101 20:47:29.133570 31130 layer_factory.hpp:77] Creating layer conv4_1_conv4_1_0_split
I1101 20:47:29.133589 31130 net.cpp:84] Creating Layer conv4_1_conv4_1_0_split
I1101 20:47:29.133605 31130 net.cpp:406] conv4_1_conv4_1_0_split <- conv4_1
I1101 20:47:29.133622 31130 net.cpp:380] conv4_1_conv4_1_0_split -> conv4_1_conv4_1_0_split_0
I1101 20:47:29.133643 31130 net.cpp:380] conv4_1_conv4_1_0_split -> conv4_1_conv4_1_0_split_1
I1101 20:47:29.133713 31130 net.cpp:122] Setting up conv4_1_conv4_1_0_split
I1101 20:47:29.133738 31130 net.cpp:129] Top shape: 2048 2 1 1 (4096)
I1101 20:47:29.133754 31130 net.cpp:129] Top shape: 2048 2 1 1 (4096)
I1101 20:47:29.133769 31130 net.cpp:137] Memory required for data: 23166976
I1101 20:47:29.133785 31130 layer_factory.hpp:77] Creating layer conv4_2
I1101 20:47:29.133805 31130 net.cpp:84] Creating Layer conv4_2
I1101 20:47:29.133821 31130 net.cpp:406] conv4_2 <- conv3_prelu3_0_split_1
I1101 20:47:29.133841 31130 net.cpp:380] conv4_2 -> conv4_2
I1101 20:47:29.135363 31130 net.cpp:122] Setting up conv4_2
I1101 20:47:29.135396 31130 net.cpp:129] Top shape: 2048 4 1 1 (8192)
I1101 20:47:29.135412 31130 net.cpp:137] Memory required for data: 23199744
I1101 20:47:29.135432 31130 layer_factory.hpp:77] Creating layer label_loss
I1101 20:47:29.135464 31130 net.cpp:84] Creating Layer label_loss
I1101 20:47:29.135478 31130 net.cpp:406] label_loss <- conv4_1_conv4_1_0_split_0
I1101 20:47:29.135495 31130 net.cpp:406] label_loss <- clalabel_slicer_0_split_0
I1101 20:47:29.135514 31130 net.cpp:380] label_loss -> label_loss
…
